saferl_animation/ckpt_825.onnx (onnx, 560586 bytes, 11 tensors)

model/value_out/MatMul/ReadVariableOp:0 f4 [256, 1]
00000000: 101b 73bd f709 6cbc c4ab 7dbb 3fbb c8bd
00000010: 1aff ebbd c94e a7bd 5a4a b6bd f352 4e3d
00000020: 94a8 043c f44a 69bb aa8b 243d 7b47 963c
00000030: 1bee 96bd 278b df3d 648a 12bd 3ac2 38be
00000040: 2c81 1dbe 3ac9 b9bd 8b47 373d 4309 c8ba
00000050: 6030 a03e 184e 0b37 a710 30be fc26 7f3d
00000060: 6345 5c38 96db 22bd f349 25bb 1442 ceba
00000070: 561b 0c3d 151f a33d 1e9a 0ebe 1f82 db3e
00000080: 0d0f 85bd e566 a939 868d 983b f3ee 903b
00000090: 7e86 a3bb 87bb efbd e9bc 913d 4079 80bd
000000a0: 2a1b 56bd f061 5d3d 8438 83bd 3b74 93bd
000000b0: 7503 b03d cfc1 493d f039 193a 4e86 99ba
000000c0: 7d53 93bd 4217 4e3d 06be 7eba 74b0 c4bd
000000d0: 2a47 97bb b4a0 bb3d 654a ad3d 30e2 27bb
000000e0: 5c1a 8dba 7bb5 d9bd 8c65 cc3c 7878 a2bd
000000f0: 9146 55bd 1dc9 a1bd 57a4 a33d 4a9b 113d
00000100: f0d1 e6bb 32a5 36bb a2f3 833d d51c a9bd
00000110: 4d14 2fbd 0273 bebd 5763 c9bd fd13 3d3e
00000120: edc3 973d d6c2 3f3d 9ef0 0dbe ecb3 a13d
00000130: 1dfe 10b9 7a89 97bd d596 923d 3599 f23d
00000140: 396b 9ebd 3bf5 0cbe 5c21 883d 3780 2d39
00000150: f638 b4bd 3b3e c2bd 5cda b03d f41d db3c
00000160: 9159 d73d e295 0b3d 63fd 9ebd ca36 9e3d
00000170: f72e c73a e7e4 d33e dfed b33d 1109 083e
00000180: d38a 47bd 03de 8bbd 00d5 093c eb05 72b9
00000190: 6192 d0bd c8bc 4d3d 3031 afbc 3356 b43d
000001a0: 4cac d1bd 8a08 88bd cf11 a43a 8bb1 a13d
000001b0: c22b 1fbb ad6c 74bd 0871 8a3d 2fb5 10bd
000001c0: 3a7b a33e be39 95bd 74d8 eebd 464b 423d
000001d0: 150e 1e3e d218 acbd a231 83bb 9feb 94bd
000001e0: 8d24 1e3e 21d6 be3c 8399 ab3d 5d7f 75be
000001f0: 5dbe dbbb a7f6 173e 920e 073b 083a 20bd
00000200: 1ba2 ef3d 2730 90bd 7448 c7bc 517a b63c
00000210: 6f15 413d 0793 8d3b 0ac7 7cbd fcef 81bd
00000220: 96ac 8ebd 7d80 80bd 2594 323d 0be4 b7bb
00000230: b4de 823d e22b 98bd aca2 dc3d e90c 47bd
00000240: 27ac a4ba a522 b83c a3c3 333b c03e babb
00000250: 05b9 52bd e43b a63d 7c01 d9bd a8af 8e3d
00000260: a1e1 99bd 6d15 afbd 0916 773d 1448 7e3d
00000270: fa68 4d3d 533f 8abd 04bc 82bd e19d 063e
00000280: ff68 87bd 37b3 91bd a9de a0bd fd51 6cbd
00000290: ee1d 943d b195 0ebe 397b a43d b214 f83b
000002a0: b801 59bd 4aed 843b a0b5 3c3e 5ee8 a2bd
000002b0: 67dd 863d b36e b23d 47fd 543b b1ac 813b
000002c0: f10e 843d 35e5 94bd aea8 cf3d 7aed cdb9
000002d0: 8ac4 9bb9 c007 943d 4a58 d1bd 6a80 83bd
000002e0: 1ade febc c6c5 543d c68a 933d 7477 97bd
000002f0: 1ff3 a2bd 74d5 11be 83ce d23b 74ea c9bd
00000300: a57a 7fbb a950 a83d 4b5c cc3d fb3b cbbd
00000310: 3a66 e0bd 9f03 c63d 2ec7 9ebd a338 32bd
00000320: 3a3c dabd 7621 2e3d 502b 0fbe f3f2 f7bd
00000330: 4196 353d c260 6c3b 12b1 b93d e452 47bd
00000340: b9a8 62bd 29a3 a1bd 6d45 5bbd bb54 febd
00000350: 692c 63bd 5df0 34ba ea4a 3fbe 04e1 f0b8
00000360: 5538 23be 33b3 6c3e 0cc2 afbd 9369 7537
00000370: 106b ecbd ae07 5c3d dbdd 92bd f83d 1a3e
00000380: a53e 30bd dbc1 6bbe 1ad8 26bd e8d5 96bb
00000390: b6a1 6a3d 3569 5b3d 3442 a7b9 ca51 513d
000003a0: 425b ba3d 8c88 23bb 9d21 9c3d cd1e 1cbd
000003b0: a6f3 8ebd ff04 fc3d c95f 8abd e6cf 09be
000003c0: b815 d23d 94bc a6bd 0ab6 4d3b 49cf c4bc
000003d0: 3daa 84bd d21e 2ebd 3f15 c13d 5d69 1cbd
000003e0: be7b 4d3d d4a4 73bd 8bdc d63d b6d9 34bd
000003f0: 0c4d 62be 3f52 9bbd 40f0 3a3e 5353 c73d
-0.05935198 -0.014406673 -0.0038707117 -0.09801339 -0.11523266 -0.08169324 -0.089009 0.050372075
0.008096833 -0.0035597654 0.040172257 0.018344631 -0.07369634 0.10915213 -0.03577651 -0.18042842
-0.15381306 -0.09071584 0.044745963 -0.0015261549 0.31286907 8.303228e-06 -0.17193852 0.062293038
5.251671e-05 -0.039760195 -0.002522108 -0.0015736246 0.034205757 0.07964913 -0.13925979 0.42872712
-0.06497011 0.00032310854 0.004655543 0.004423016 -0.004990398 -0.1170569 0.0711611 -0.062731266
-0.052272 0.05404848 -0.06407264 -0.071999036 0.085944094 0.049257096 0.000584512 -0.0011713
-0.071936585 0.05031515 -0.0009717647 -0.09603968 -0.0046166377 0.09161511 0.08461455 -0.0025616996
-0.0010765302 -0.10630318 0.024950765 -0.07933134 -0.05206925 -0.078996874 0.0799033 0.035548486
-0.0070440695 -0.002786946 0.06442954 -0.082574524 -0.04274397 -0.0929928 -0.09833401 0.18464656
0.07410417 0.04681667 -0.1386132 0.078956455 -0.00013827575 -0.073992684 0.07157675 0.11845628
-0.07735295 -0.13765423 0.06646988 0.0001654633 -0.08799927 -0.09484526 0.08635399 0.026747681
0.1051513 0.034078486 -0.077631734 0.07725294 0.0015196492 0.41385576 0.08785605 0.13284709
-0.048716377 -0.06829455 0.0084126 -0.00023081123 -0.101841696 0.050228864 -0.02138576 0.08805504
-0.10237941 -0.06642254 0.0012517514 0.07895192 -0.0024287556 -0.059673954 0.0675984 -0.03532904
0.31929952 -0.07286404 -0.11662379 0.047435068 0.1543506 -0.084031716 -0.0040037194 -0.07271504
0.1544363 0.023295464 0.083788894 -0.23974366 -0.0067060427 0.14840184 0.002060805 -0.039117843
0.11700841 -0.07040434 -0.02432654 0.022275122 0.04713958 0.0043205055 -0.061713256 -0.063446015
-0.06966512 -0.06274507 0.043598313 -0.0056119016 0.063901335 -0.07430245 0.10773215 -0.048596296
-0.0012563512 0.022477457 0.002742984 -0.00568375 -0.05144598 0.08116892 -0.10595986 0.069670975
-0.075137384 -0.085490085 0.06032375 0.062080458 0.05014894 -0.067503594 -0.063835174 0.13146164
-0.06611823 -0.07114261 -0.07854969 -0.057695378 0.07232271 -0.1392429 0.08031315 0.0075708264
-0.052980155 0.0040566074 0.1842866 -0.07954477 0.06585198 0.087125205 0.0032499598 0.003957354
0.06448162 -0.0727028 0.10139595 -0.0003927758 -0.00029710337 0.07228041 -0.10221918 -0.064209774
-0.031111766 0.051946424 0.07204203 -0.07395831 -0.07956528 -0.14241582 0.0064333095 -0.098591715
-0.0038983014 0.0821851 0.09978541 -0.0992355 -0.10956998 0.096686594 -0.07752834 -0.043511044
-0.106560186 0.04251238 -0.13981366 -0.12106886 0.044332746 0.0036068414 0.090669766 -0.048663035
-0.055336688 -0.078924485 -0.053533006 -0.12418505 -0.055462275 -0.0006902272 -0.18680921 -0.00011486004
-0.15939458 0.23115234 -0.085819334 1.4627719e-05 -0.11543858 0.05371826 -0.07171222 0.15062702
-0.043028492 -0.23023169 -0.040733434 -0.0046031363 0.057283126 0.05356713 -0.00031902047 0.05110339
0.09099437 -0.0024953214 0.07623599 -0.03811531 -0.06980066 0.123056404 -0.06756551 -0.13458213
0.10258049 -0.08141437 0.0031389021 -0.024024623 -0.06477783 -0.04250986 0.094278805 -0.03818642
0.050166838 -0.059483364 0.10491284 -0.044152938 -0.22099704 -0.075840466 0.1825571 0.0973269

model/fc_value_2/MatMul/ReadVariableOp:0 f4 [256, 256]
00000000: e0df 2f3e 0d22 0d3e 849e a13d f7ff 83bd
00000010: 2d5f 973e 701f fc3c b200 8bbe 6531 623b
00000020: 2841 2dbe 4ad5 23bd 16e8 1fbe 5035 9abd
00000030: 2eda 643d 3b36 72be 3129 0fbe f2e0 143e
00000040: b5ec 453e 9df7 593d a7cc 22bd f022 333d
00000050: 1429 34bc 5f7a 31be 02aa 8f3c 01a7 8fbd
00000060: 5005 003d 137f 19bd b7ed 613e d5d5 bbbd
00000070: c8b8 b23d a040 e73c e31b d13d 2f4e 723e
00000080: 00c4 00bf 8490 01bd ca78 103e 73f0 263e
00000090: d5e8 a8bd a069 403e 7272 aebc 6131 633d
000000a0: 050b 223e e18e c6bd ad3b 033e d219 98bd
000000b0: 6713 a3bd 252a 303d 0e18 b63a 84db 133e
000000c0: e744 a2bd 6dcd 2cbd e2fd 63bd 0cc9 0a3d
000000d0: 7ecf bdbd 1c0e 75be 9564 553e a7ce 803e
000000e0: 80ae ccbd fec3 babd 5051 f73d dee6 543e
000000f0: 895b a8bd df88 cabd 8bb9 c0be 9968 77be
00000100: 2d98 913c 26bd 36bd cb12 4c3e 9b8c d1bd
00000110: e20a 8ebd 5fd1 fe3d 45ba 48bd 9e2e 963e
00000120: 4aa5 b93c efdf 4bbd f4c4 a93a 1f09 dd3d
00000130: 8b1e f23d b660 c43c 55a7 d23d 2ff8 a8bd
00000140: 5a66 fe3c b94e 02be d7ac 6f3e baab f2bd
00000150: 253a 0abe 9186 223d 6d06 4a3e 93f4 233c
00000160: 99a2 cdbc 46b6 173e e0da 303d 4b97 8d3e
00000170: d5bf 86bd b635 02be a1d1 4d3d 711c b93c
00000180: 2bb3 ed3d cd25 f3bc 7aff 1f3e 4857 05bd
00000190: 8f16 893e e2cc ce3d 48c2 3a3d 0065 393d
000001a0: cb19 303e e051 f5bd 35ef adbd 3cf2 d9bc
000001b0: 46d9 113e f904 a03d 7d21 653d ed17 dcbd
000001c0: c58f 3e3e 798e f23d a740 0f3d 3dd3 053f
000001d0: 5a59 5bbe 4d1f 9bbd 4846 90bd 4642 58bd
000001e0: c3a7 3a3e 63b1 683b 72bb 9cbd 7546 38be
000001f0: 1339 13be d816 48be ea26 0fbe 202c 89be
00000200: 3883 fb3d 5071 cabd b591 f63b 03f6 0c3b
00000210: 7012 66be acd5 063e 6834 0b3e 931c 03be
00000220: 125b 37be 1756 30be 5c27 b43d a16d 8a3d
00000230: d477 a03e a15f 373e 7c34 3bbe c7ad 583e
00000240: 675d d4bd bcc8 99bd 6652 82bb 3fa8 eb3d
00000250: 28a9 0f3e c3e6 343d 7ae8 3bbd ee12 843d
00000260: 68ed 9f3e 5f20 9c3d 07f4 48be 8c3f 343e
00000270: a405 b7be 1f7c 1b3d 0d0d df3e a145 3cbe
00000280: a57e 733d 051b 93bd 81e7 253e 2c7d 333c
00000290: da9d 993b 22f0 5b3d 23a0 81bd aa1b 97bd
000002a0: a95d 8e3d 8ec4 0e3d c71f d33d d7f1 703d
000002b0: 9de5 babc 9204 183e 226f 733c 3563 963e
000002c0: ae95 12be 5e01 acbd 1659 1ebe 5bef 3fbe
000002d0: 3bc1 91bd e56a 5f3d 1f03 a7bb 6a6a 103f
000002e0: 7985 ac3d c6d6 15bd e919 0d3d c1c2 1b3b
000002f0: e3d1 90bd 4d54 aabb 0cb2 b7bd 5ce5 d0bc
00000300: 9dc8 fbbd f1ce a2bd 7e3b 3abe f3b3 c0bd
00000310: 92df e73d 3f32 e63d 208f 143e db1e 3b3e
00000320: 1523 b43d 637d 023d 1d2f 1cbe 8734 383e
00000330: b43a 9cbc a91f 453d 2169 323e 3b69 4fbd
00000340: 3686 59bc 9343 3a3e 7521 eabd 51ee b1bc
00000350: 06cc be3e 1c2a 913d a141 d73a 5d4c 7c3d
00000360: 0517 363b f4db 783e e658 6d3e 8992 323d
00000370: b4cf dcbc 7ef2 333c 9e28 563e f2c4 cb3d
00000380: 266a 43bd 4a59 7c3c 6494 233e 565a 973d
00000390: 696a 4b3b e2c8 7b3e 666c 503d 6816 d1bc
000003a0: d457 68bd 51b4 03be 6dd8 ba3c 6a43 a7bd
000003b0: 2fd7 013e 5292 303e 6a83 713d 3175 24bd
000003c0: 8711 2bbe 94cd e0bb ded5 1cbe 5d15 78be
000003d0: ff18 dbbd 5deb 993c 804e aebe 3d87 babd
000003e0: 6094 08be 638e c7bd 5c47 c93d 7cf6 963c
000003f0: b4fd 8bbd 94aa 803b a1c4 99bd 8a40 00be
0.17175245 0.1378252 0.078915626 -0.06445306 0.295648 0.03077671 -0.27148968 0.0034514305
-0.16919386 -0.03999833 -0.15615878 -0.075297 0.055872135 -0.236535 -0.13980557 0.14538935
0.19328578 0.053214658 -0.039745953 0.04373449 -0.010996122 -0.17331837 0.01753712 -0.07014275
0.031255066 -0.037474703 0.22063337 -0.091716446 0.087266505 0.028229058 0.10210397 0.23662637
-0.5029907 -0.03163196 0.14108577 0.16302662 -0.08247534 0.18790293 -0.021294806 0.055467013
0.15824516 -0.09695221 0.12815733 -0.074268 -0.07962685 0.043008942 0.0013892667 0.14439207
-0.07923298 -0.042188097 -0.055662043 0.03388314 -0.092680916 -0.23931164 0.2083915 0.25157663
-0.09994221 -0.09119414 0.12076056 0.20791194 -0.08220584 -0.09889387 -0.37641558 -0.24160995
0.017772758 -0.04461398 0.19929044 -0.102318965 -0.069356695 0.12442278 -0.049005765 0.2933244
0.022661824 -0.049774107 0.0012952373 0.10792755 0.11822232 0.023971897 0.10285822 -0.08250462
0.031054664 -0.12725343 0.23405777 -0.118491605 -0.13498743 0.039679114 0.19729014 0.0100070415
-0.025101947 0.14815626 0.043177485 0.2765449 -0.06579558 -0.12715802 0.050248746 0.02259657
0.11606439 -0.02968111 0.156248 -0.03255394 0.26775023 0.10097672 0.045595437 0.045262337
0.17197339 -0.11978507 -0.08492891 -0.026604764 0.1424304 0.078134485 0.05594014 -0.10746751
0.18609531 0.11843581 0.034973767 0.5227545 -0.21420804 -0.075743295 -0.07044655 -0.05279758
0.18228059 0.0035506121 -0.0765294 -0.17995627 -0.14377241 -0.19539964 -0.13979688 -0.26791477
0.12280887 -0.09884894 0.007524694 0.002150894 -0.22467971 0.13167447 0.1359421 -0.12803869
-0.17905834 -0.1722034 0.0879657 0.06759191 0.31341422 0.17907573 -0.1828174 0.21160041
-0.103693776 -0.0750899 -0.003977108 0.115067 0.14029372 0.044165384 -0.045876004 0.06448923
0.31235814 0.07623362 -0.19624339 0.17602366 -0.3574649 0.037960168 0.43564644 -0.18385936
0.05944695 -0.07182888 0.16201593 0.010955136 0.004688007 0.053695805 -0.06329372 -0.073783234
0.06951458 0.034855418 0.103087954 0.058824386 -0.022814566 0.14845493 0.014858039 0.29372564
-0.14314911 -0.08398698 -0.15463671 -0.1874365 -0.07116934 0.054545302 -0.0050968076 0.56412375
0.084238954 -0.036581777 0.034448538 0.0023767205 -0.07071283 -0.0051980377 -0.089695066 -0.025499992
-0.12294123 -0.07949627 -0.18186757 -0.094093226 0.113219395 0.112400524 0.14507723 0.18273489
0.08795754 0.03185786 -0.15252347 0.17988788 -0.01907096 0.048125897 0.17422916 -0.050637465
-0.013276627 0.1818984 -0.11432163 -0.021720083 0.37265033 0.0708811 0.0016422757 0.061596263
0.0027784717 0.24302655 0.23178443 0.043596778 -0.02695451 0.010983108 0.20913932 0.09949674
-0.047708653 0.015402148 0.15974575 0.07390277 0.0031038767 0.2458835 0.050884627 -0.02552338
-0.056724384 -0.12861754 0.022808278 -0.08167155 0.12679742 0.17243317 0.058963217 -0.040150825
-0.16705905 -0.0068604443 -0.15315959 -0.242269 -0.10698127 0.018788988 -0.34044266 -0.09107826
-0.1333785 -0.09743955 0.09828064 0.01842808 -0.068354994 0.0039265845 -0.07508207 -0.1252462

model/fc_value_2/BiasAdd/ReadVariableOp:0 f4 [256]
00000000: 4a17 d43b c1da 7c3d 6654 2d3b cf21 bbbd
00000010: 27b9 94bd 5156 8abc 46c1 66bd 613c 573d
00000020: c446 feba f424 b6bb b257 1abc ba59 403c
00000030: 5daa 28bd 95f8 4dbc 6b37 0b3d 2da8 38bd
00000040: 0894 34bd 4b5a ce3d 86e8 653d 09ec c6bc
00000050: c55c e43c 8d87 37bc 2686 543d 9f88 67bc
00000060: fb91 2739 c818 3abc f62a aa3c 4000 d4bb
00000070: 5246 c93c 883c 823c 128e d539 e7a2 59bd
00000080: 11e5 00bc 998f bbbc d984 2c3b f761 78ba
00000090: 1059 aa3b 67d6 1e3d 5a31 1d3d e5e3 dd3c
000000a0: 70e9 8dbd b47b b73c b93c b6bd 16f5 cfbc
000000b0: 79df 5ebc 0f8b a7bc c497 ceb8 0d93 703c
000000c0: ccc7 893d e985 19bd bda5 14bc 1077 b9bc
000000d0: c42c 303b b8a3 2cbd 173d 3d3d f039 9c3c
000000e0: 9d3c abb9 23a6 073d 687b 0e3d ee2c 54bb
000000f0: 361a 22bd 13e8 0f3c b961 3fbc 2197 60bd
00000100: 2221 5bbd ab43 d43b dc82 803d 484a 58bd
00000110: a513 28be 3886 0e3d 0f80 b73c 15ea 03bd
00000120: a2f6 1cbd 1b05 61bc d9fa 38bd 9e92 69bc
00000130: ac5b 42bb fb2a 3c3d ca9e f03d a9ea 993c
00000140: 2271 773d c938 113d 86d9 c4bb 60d2 9abb
00000150: 0c25 073d bf2d 5ebb a1c8 843d a5f8 8c3d
00000160: dabb 45bd 19a4 113c e59b ddbc 120c c63c
00000170: 49c5 843b d204 9d3d b927 b43d d5eb c63d
00000180: dbb0 ec3b b25f 2dbb 4c95 153b 35fa eebb
00000190: 0adc 973d 93f2 573d 32da 09bd 0bf2 c63d
000001a0: c80d 09bc 89a4 83b9 6771 6fbc bec2 dd3c
000001b0: 4a01 933c 9639 b4bc f528 823c 2cc2 5b3c
000001c0: 5293 ab3d bf29 c3bb 61e2 2b3c c2a4 473b
000001d0: ebaf 1ebd 0a26 47bd ab57 abbc bcf0 063c
000001e0: 6766 8cbc eee4 6ebc 4343 64bc 2756 5bbc
000001f0: d8df 643d 42c8 8ebd 1808 43bc e06b c6bd
00000200: 1822 d1bc 23a2 42bd f6d2 1fbd 591b 38bc
00000210: 6622 673c 2d6b 47bc 66a1 6f3d 0af0 313c
00000220: 94d3 cf3c 10e5 d6bd 4144 abbc edd8 1ebc
00000230: 709d c03b 1a90 6cbc 05da 4e3c d7fb 42bd
00000240: 9a8d 403b 5ed1 2bbd 59a0 ec3b 56e2 8bbb
00000250: 043e 943d d7e4 083c 9af3 47bd 075f 193d
00000260: 2b87 173d cf4d 05bd c4da 48bd eebe 343c
00000270: 673a cbbd 2fd9 453d 366e be3c 79e0 7e3c
00000280: 9297 a3bc 1c73 8f39 589e d83b e7c8 90bc
00000290: a53a 483c aff2 f43c 8dcf f13c 6b2c a0bb
000002a0: 8540 453d f315 33bc 2c34 f83b 8d69 ac3c
000002b0: 0919 b7bd c90f 2f3d 8db9 833c c3dc 773b
000002c0: 90a3 fbbc 3b1d 483d da4b c13c 4d10 29bc
000002d0: 5d62 9cbc 8b9f 57bd a73f 3e3d 7573 bcbc
000002e0: 4053 c6bc 95d9 95b8 c5e4 a43d d9b6 80bc
000002f0: 42e2 c7bc 2a52 b83c d819 d53c c5b4 5e3d
00000300: a6f8 5f3c e249 f6bc af0c 9ebc 7b0d 19bc
00000310: 23b1 9bbc ac9d f73a b6ad c33b c27a 3d3d
00000320: d4e9 c1bd 1e00 8d3b 6160 04be e778 4a3d
00000330: 4946 9cbc 3a25 d43b 21f9 a13d 8c6a e7bc
00000340: 7152 4e3d 051a 373d 5f70 9ebd 1deb 1eba
00000350: 151f bfbc 5ad5 753b 768c 133d f59e e6bb
00000360: efe3 65bd 4d52 16bd 58c3 d8bc 02a4 383b
00000370: 1cd9 84bc 7121 91bc a849 55bb 6df0 a5bd
00000380: 3fa6 7ebc 0d58 083d ca7a 9f3d a184 403b
00000390: 8550 f83c c8e9 d4bc 6fac 9d3c c8ec c3bc
000003a0: 1c4a 96bd d6f6 6d3b ad40 1bbc f0a5 a9bc
000003b0: b678 7dbc 8908 643d 9d49 d73c a981 9bbb
000003c0: 76c1 873b c3fe 6abd b426 5dbc 7b0c 4f3b
000003d0: cb86 89bc fca5 133d 4c51 14bc 683b 27bd
000003e0: b72e 693c f1a3 07bc fdcf 103c 043d 343d
000003f0: 3bbc 0bbd c1e8 8dbd 7b39 893c 9def 8dbc
0.006472503 0.061732057 0.002644801 -0.09137308 -0.072618775 -0.016886862 -0.056336664 0.052547816
-0.0019399752 -0.0055586044 -0.009420322 0.0117401425 -0.041178096 -0.012571474 0.033988398 -0.04508226
-0.044086486 0.10075816 0.056129955 -0.024282472 0.027876267 -0.011201751 0.051885746 -0.014131694
0.00015980743 -0.011358447 0.020772438 -0.0064697564 0.024569664 0.015898004 0.00040732377 -0.05313387
-0.007867114 -0.022895621 0.00263243 -0.0009475047 0.0051986054 0.03877869 0.038377143 0.027086208
-0.0692929 0.022397853 -0.08898301 -0.02538542 -0.013603085 -0.02045205 -9.851114e-05 0.014683497
0.06727561 -0.037481222 -0.009072718 -0.022639781 0.002688215 -0.042148322 0.046200838 0.019070596
-0.00032660822 0.033117425 0.034785658 -0.0032375413 -0.039575778 0.008783358 -0.011681014 -0.054831628
-0.053498395 0.006477793 0.062749594 -0.052805215 -0.16413744 0.03479597 0.02239993 -0.03220566
-0.038321145 -0.013734127 -0.045161102 -0.014256148 -0.0029656691 0.045939427 0.117490366 0.018788652
0.060410626 0.035454545 -0.006007376 -0.0047247857 0.032994315 -0.0033901779 0.064835794 0.06883363
-0.048274852 0.008889222 -0.027051875 0.024175677 0.0040518385 0.07666935 0.08796639 0.0971295
0.0072232313 -0.0026454744 0.0022824584 -0.0072930106 0.07415016 0.05272157 -0.033655353 0.09714135
-0.008365102 -0.00025108855 -0.01461444 0.0270704 0.01794495 -0.022000115 0.01588867 0.013412993
0.083777085 -0.0059559043 0.010490985 0.0030463194 -0.038741987 -0.04862026 -0.020915827 0.0082361065
-0.017138673 -0.014580948 -0.013932052 -0.01338724 0.055877537 -0.0697179 -0.011903785 -0.09688544
-0.025528952 -0.047517907 -0.039019547 -0.011236989 0.014107322 -0.012171549 0.05850353 0.010860452
0.025369443 -0.10492909 -0.02090657 -0.009695274 0.005878143 -0.014438653 0.012625222 -0.047603454
0.0029381276 -0.041947715 0.0072212634 -0.0042689247 0.07238391 0.008355341 -0.0488163 0.03744414
0.03699414 -0.032544907 -0.049036756 0.011031849 -0.09923249 0.048302826 0.023245912 0.015556448
-0.019969735 0.0002736085 0.006610673 -0.017673923 0.012221013 0.029900877 0.029517913 -0.0048881075
0.048157234 -0.010930526 0.0075745787 0.021046424 -0.08940322 0.042739663 0.016079688 0.0037820793
-0.030717641 0.048856 0.02359574 -0.010318828 -0.019089872 -0.052642386 0.046447422 -0.023004273
-0.024209619 -7.1454015e-05 0.08051447 -0.015712189 -0.02439988 0.022500116 0.0260133 0.054371614
0.013670122 -0.030064527 -0.019293157 -0.009341593 -0.019005364 0.0018891594 0.0059716357 0.04625965
-0.09468427 0.0043029925 -0.1292739 0.049431708 -0.019076483 0.0064741643 0.07908846 -0.028249048
0.05037159 0.04470255 -0.07736277 -0.0006062256 -0.02333025 0.00375112 0.036022626 -0.007037992
-0.056125578 -0.036699582 -0.026460335 0.0028173928 -0.016216807 -0.017716141 -0.0032545123 -0.08102498
-0.015542566 0.033287097 0.07787092 0.0029375928 0.030311832 -0.025990382 0.019247262 -0.023916617
-0.07338354 0.0036310456 -0.009475869 -0.020709008 -0.015470674 0.055672202 0.026280219 -0.0047456813
0.0041429354 -0.057371866 -0.013497997 0.0031593132 -0.016787907 0.036046967 -0.009052586 -0.04082814
0.014232329 -0.008278833 0.008838651 0.0440035 -0.034115057 -0.0692916 0.016751042 -0.01732617

model/fc_value_1/MatMul/ReadVariableOp:0 f4 [12, 256]
00000000: 2af8 afbe 8449 53bf fa2f cf3e 9021 d7be
00000010: 5910 cdbe 39e8 aabe b101 f83e 3e29 9e3e
00000020: 91a8 583c 32b6 04bf 1295 dc3d 4d12 adbd
00000030: c67e 073f 6f52 483d 7c99 86bd f685 883e
00000040: aaa3 863f 43cf 06bf 18aa 103f 6abe 23be
00000050: 1430 3d3f 4970 013f ddb8 6e3e 9462 29be
00000060: bb52 d9be d1e1 14bd d80e 1abf 65c2 38bf
00000070: 4535 0dbe 22b3 cc3e 10d1 4fbe 9300 03bf
00000080: ed9b f2bd f725 aabe a286 adbe 5ad9 d43e
00000090: 5b94 c8bd 3146 a03d 5865 72be d245 00bd
000000a0: 960f 95be e20a 383e c685 4dbe 1877 7f3e
000000b0: 411e 843e 7b70 55bf b6cc cb3d 04ca d13d
000000c0: 7a1b 583d 5ea2 293f 58db 05be 0619 303e
000000d0: 9b91 48bf 925a 123e a1bf a4be 4112 42be
000000e0: d6ad a3be eef2 0a3d 97d5 c3be f001 d73e
000000f0: 79a2 073f 3d48 853e 4421 313e 8b0d 18bd
00000100: d2c3 aa3e 1c0c d23e 7ebf 8fbe bcbe 9bbe
00000110: b12e 2ebf c376 883d cf21 bfbe 4fb4 dcbd
00000120: c027 adbe bb70 973e becd 1fbf c9a3 313e
00000130: fa7f 323e 3c42 023e 8252 803e e442 acbd
00000140: be44 593e 2a5c 46be 28ea 40bd 680e 1abf
00000150: 1e23 4c3e 9e44 3d3e 05a0 19bf fc7e a13e
00000160: 50e0 1bbd 988a fd3d 7c46 0a3e 5d72 213f
00000170: 413d 37bf 1d14 653e 1d44 9f3e 0699 523e
00000180: e22b 16bf b19e 5f3e 0f24 913e 54d5 f33d
00000190: 95b7 aebc 3f1b 0b3f c773 19be 0973 c9be
000001a0: 3500 68be e49c 13bd 74cf 0bbf 48eb 3fbd
000001b0: cc71 593e 91f0 9dbe 3189 d83c 3f07 fd3e
000001c0: c64b d23e b1ac e9be 1235 533e 40f1 523e
000001d0: 8725 0abf 1a1e a5be e009 853e 634c 2ebf
000001e0: 0ced 123e 7fe5 cdbe 12fc 80be b19f e6be
000001f0: f46f c3be 3347 803e ac77 fc3b 3877 94be
00000200: 8d8e 063e 17a0 cfbd 88b7 f33e 5887 043f
00000210: decb 91bd 3911 823e 37c4 b3bd ce0d 9e3d
00000220: ff40 323e e0eb 9b3e 45e7 59be 8e8c f93e
00000230: bee6 873e a9e8 3abf 093c 3ebe d308 2d3e
00000240: 5bb5 4cbe f9f4 3a3f d303 9e3e 28d9 abbd
00000250: 13ff 9d3e 4aab b73d 899b f33d ba7d 56bd
00000260: 5160 b5be 7cac ae3e f431 3bbe 94cd e63e
00000270: 318a a1be bcd1 22be e4dc 5a3e 6117 b8be
00000280: ead6 ec3e 11b8 163d 1734 0a3c 15c0 9ebd
00000290: 6b3f 9b3d 6e9f f2be 71e0 453d e6ca ebba
000002a0: 49e6 8fbe ffd4 963e e88a 17be 7891 1abf
000002b0: 6108 71be 5ed7 6e3e eae0 89bd 0781 933d
000002c0: 14d6 d33e f8dc 40be bb31 973d 3041 6d3d
000002d0: ed3d 2b3f dd62 24bd 158f 16bd e174 c1bd
000002e0: 1df7 923e cb18 893e a8a5 b03e 4adb 6a3d
000002f0: ae9d 38be 52a2 5fbe fc9b 0e3e 2879 693e
00000300: f2c6 2b3e 2bce d03e f1de d8bc 0fc9 1fbe
00000310: 843c c63d b84a 90bc d425 cb3d e6b3 23bf
00000320: d7ec eb3e adf9 9bbc c8d5 e23e 5e3b 213e
00000330: 70df 4c3e 9f82 083e b5b8 9dbe 3643 84be
00000340: 6c84 f13e dc58 493e 4260 49be f166 1ebd
00000350: 650d 93be c7ad f83d e066 a73e 41ad 203e
00000360: 57ea 8fbe 8eba 34bf 4e3d 13be 71ff 0ebe
00000370: 7ca3 bebe df26 49be ba93 233f 8db0 92be
00000380: 9f57 3a3e 92ce 1cbe ebcd 1fbf 987d 96be
00000390: def9 e3be 0a4d 123f ac3e b2be 68f6 32be
000003a0: ca9c 913e 92b6 e3be ccb4 cfbd 2b88 0a3d
000003b0: 773b 913d 62be e63e 63e2 873e 419a b63d
000003c0: bb86 2f3e 646c 80be ddf6 02bd 76c7 c73e
000003d0: 015d 88be 009b 3cbf 2614 a93e f968 2b3f
000003e0: e41a c8be 118b 74be 86cd 9fbe 6309 bbbe
000003f0: 1dc2 56be 5c43 7abd f906 673d b26e dd3e
-0.34369022 -0.8253405 0.4046629 -0.42017794 -0.40051535 -0.33380297 0.4843879 0.3089084
0.013223783 -0.5184051 0.107706204 -0.08450756 0.52927816 0.04890674 -0.065722436 0.26664704
1.0518696 -0.52660006 0.5650954 -0.15990606 0.73901486 0.5056196 0.23312707 -0.16541511
-0.4244593 -0.036348168 -0.601789 -0.7217162 -0.13789852 0.39980417 -0.20294595 -0.5117275
-0.11846147 -0.3323209 -0.3389178 0.41572076 -0.097939216 0.07825888 -0.23671472 -0.031316586
-0.29113454 0.17972901 -0.20070562 0.24947774 0.25804332 -0.83374757 0.09951155 0.102436095
0.05276058 0.6626338 -0.13071954 0.17197046 -0.78347176 0.14292362 -0.3217745 -0.18952276
-0.31968564 0.033923082 -0.38248894 0.41993666 0.5298229 0.26031676 0.17297846 -0.03712229
0.33352524 0.41024864 -0.28075784 -0.30418956 -0.68039995 0.06663277 -0.3733048 -0.10776579
-0.3381939 0.29578194 -0.6242331 0.17347635 0.17431632 0.12720579 0.25062948 -0.08411196
0.2121763 -0.19371095 -0.04709831 -0.6017823 0.19935271 0.18483207 -0.60009795 0.31542194
-0.038055718 0.1237995 0.1350345 0.6306513 -0.7157784 0.22370954 0.31106654 0.20566186
-0.5866071 0.2183788 0.28347823 0.119059235 -0.021327773 0.5433845 -0.14985572 -0.39345577
-0.22656329 -0.036038294 -0.54613423 -0.04685524 0.21234816 -0.308476 0.026432605 0.4941959
0.41073436 -0.45639566 0.20625713 0.20599842 -0.5396351 -0.32249528 0.25984097 -0.68085307
0.14348239 -0.40214154 -0.25192314 -0.4504371 -0.3817135 0.2505432 0.0077046957 -0.28997207
0.13140316 -0.101379566 0.4760096 0.5176902 -0.07118963 0.25403765 -0.087776594 0.07717477
0.17407607 0.30453396 -0.21279629 0.48740047 0.2654323 -0.7301126 -0.18577589 0.16897897
-0.19991057 0.7303005 0.30862293 -0.08391029 0.3085867 0.08968218 0.118949 -0.052365996
-0.35425046 0.3411597 -0.18280774 0.4507872 -0.31550744 -0.1590032 0.21373326 -0.35955337
0.46257716 0.036796633 0.008435271 -0.077514805 0.075804554 -0.4738726 0.048309747 -0.0017989546
-0.2810538 0.29459378 -0.14799082 -0.6037822 -0.23538353 0.23324344 -0.06732352 0.072023444
0.41374266 -0.18834293 0.07382532 0.057923496 0.66891366 -0.040133346 -0.036757547 -0.09446121
0.28704157 0.26776728 0.34501386 0.057338037 -0.180289 -0.21839264 0.13926691 0.22800124
0.1677511 0.40782294 -0.026473494 -0.15604042 0.09679511 -0.017613754 0.099193245 -0.6394638
0.46079132 -0.019039953 0.44303727 0.15745303 0.2000711 0.13331078 -0.30804983 -0.25832528
0.47171342 0.19662803 -0.19665626 -0.03867239 -0.28721157 0.121425204 0.32695675 0.15691091
-0.28108475 -0.7059716 -0.14378855 -0.1396463 -0.37234104 -0.19643734 0.6389729 -0.28650323
0.18197487 -0.15313175 -0.6242358 -0.29392695 -0.4452657 0.571488 -0.3481344 -0.17476809
0.28439933 -0.44475228 -0.10141906 0.033821266 0.0709142 0.45067126 0.26539907 0.0891614
0.1714124 -0.25082695 -0.03197371 0.39019364 -0.26633456 -0.7367401 0.33023185 0.6695705
-0.39083016 -0.23881175 -0.3121149 -0.365306 -0.20972486 -0.061099395 0.056403134 0.43248516

model/fc_value_1/BiasAdd/ReadVariableOp:0 f4 [256]
00000000: 0080 afbc c25a 633d e825 333c 3f09 e03c
00000010: 3514 b6bd 8c5b 2cbd 111d b8bd fb2c 513c
00000020: ed92 10bd 91d1 d03d cf62 9b3d 0a74 0abe
00000030: d6a7 7dbd ac1d 2fbd 9804 333b 5754 3bbd
00000040: 9dd8 353d 2e71 c83d 33c2 57bd d57c 213e
00000050: d2f9 833a 69da 2dbd ce93 efbd fa16 d43d
00000060: 090f b43c 4042 3bbd 5417 c4bd dc6b 38bc
00000070: 9333 903d 5e9e a6bd 61e2 c13d 40ba 443d
00000080: fe1c cd3c 58c5 0e3e 05ea 983d ccbe 94bd
00000090: 57bb 103d d493 81bd 3a63 97bd 8b68 c43d
000000a0: 54c3 86bc b45d 293c 33b9 d33c 1dfc ad3b
000000b0: 6b5f e13d 3077 983d 9d41 56bc 4972 df3c
000000c0: fbd6 673b dc81 183d fbcc 1b3e fe5f 90bd
000000d0: 5af3 a23d 80a5 8ebe 1d65 a1bb 021f 76bc
000000e0: 9aeb 55be c332 b2bd 49f1 9a3d 3266 bb3d
000000f0: 0b8c 0b3e d5a8 dd3d 870a fa3d 43db c3bc
00000100: b3bf 0c3c 6b35 56bc 1725 f53b 217c 34be
00000110: c17e a5bd a457 0ebd fdcd 343c d4a8 4bbd
00000120: 0ebc 053d 7808 c53c 5fb4 36bd bea0 3e3c
00000130: ed93 21be 8093 863d af7b 4abb 4903 eb3d
00000140: e678 833d 3b69 a0bd 2bb6 aabd 5b32 b73d
00000150: 0cfc 81bd 85e4 e2bc 84d4 4d3e 5ca4 9dbb
00000160: 2188 353c 47a3 073e b043 b4bd d013 39bd
00000170: 2231 4abe 6f45 24be bc75 bf3c 7940 4a3e
00000180: cffe 0bbd cfc2 2abe 6c7e 093e 64f8 ba3b
00000190: a71d 373d 19fb 41bd ed2f 3fbd 3528 b83d
000001a0: 716e 9c3d 33ca fe3d c7a4 6abd ebbd 70bc
000001b0: 0865 493d 685d 25be afec a93c 7f79 06be
000001c0: ddea aa3d 407c 423e 0e76 d33d 2a30 8c3c
000001d0: f478 fe3a 1b64 6b3c 5577 423d af8e 4b3e
000001e0: 09b2 903d 3bda 493e eb39 f43a 22e8 183d
000001f0: f334 a93d c761 0f3e c5f0 6cbd 92f2 10bd
00000200: 1734 95be 7e79 13be 9ee6 08be 2856 933c
00000210: b0f5 333c a161 df3d 9dce 723d b982 1f3d
00000220: cee7 353d a2bc 49bd 49c8 c2bd c2f2 00be
00000230: d93b 303d c4c7 e83b 86a5 d73d 0591 46bd
00000240: 09fd c0bd 61da afbd 17e0 223d 924d 08bd
00000250: a7b4 55bc 9f06 b43d f6a7 02bd b498 143e
00000260: 7126 9bbd af4d 1fbd 3e3d d6bc 152c 43bd
00000270: 4963 3ebd 86b9 113d 67cf 95bc 05ec 4f3b
00000280: 48d3 f1bd be45 033d 05bc 353e 5b2b bcbd
00000290: 005e a23e 481f 44bd 723e 0e3e 0e32 99be
000002a0: 3140 95bc eed3 17bd 3573 50be 5256 e1bd
000002b0: cb99 113e 6a15 973d e569 9dbd 2434 923c
000002c0: 58f4 943d a460 de3d 8669 b9bc e3a0 95bd
000002d0: 61f2 e6ba 5c65 1bbe cb3e a2bc 65d5 33bc
000002e0: 74ee 023d ba62 213d 6111 b93d 9dae 2e3c
000002f0: 18f4 4b3d ba53 0b3d 68fd 18bd 9516 0fbe
00000300: f53a 3f3d 193a 823c fa56 adbc 5345 d7bc
00000310: 3599 c33a 00b7 643c 7c8d 21bd da51 01be
00000320: 2283 afbb af9e a33d 2834 48bd 9183 38bc
00000330: 7226 d6bc eb9c 443d 9455 d13d ded6 1e3d
00000340: f66a 33be 229f 7f3d c286 b53d 976f 133c
00000350: 46d7 bd3d 5fde aa3c d89a 1cbe b1ac 713d
00000360: 2295 b73d ae62 723d b25f 993d 72e0 e13d
00000370: 2456 a9bd bd58 103d f0a7 14be 6959 44bd
00000380: 44e1 f53d b84d e1bd 3803 0cbd 7807 cbbd
00000390: 8a45 873d 9a09 7ebd 574d 89bc 5125 b4bd
000003a0: d1fa 1fbd ab14 0abd 0def 06be 7594 4dbb
000003b0: b3ce 30bd f311 2ebd b280 793b e06f f9bd
000003c0: 5263 4f3c 4584 d43d a3e3 f9bd 4f0f 613d
000003d0: 0a79 b83d e15f d4bd 97cc e6bc b1b7 09be
000003e0: ab0a f9bc d986 e3bd 22f6 c5bd 6dde 8e3c
000003f0: 46b5 1d3e 1bb2 c6bd 0b68 9c3c 353b c1bd
-0.02142334 0.055506475 0.0109343305 0.027348159 -0.08890573 -0.042079493 -0.08989919 0.012767072
-0.03529637 0.101962216 0.075872056 -0.13520828 -0.06192764 -0.042752907 0.002731597 -0.04573473
0.04439603 0.09787212 -0.052675437 0.15770276 0.0010068959 -0.04244462 -0.116981134 0.10355945
0.021979826 -0.045717478 -0.09574762 -0.011256184 0.07041087 -0.08135675 0.094670065 0.048029184
0.025038239 0.13942468 0.07466511 -0.07262954 0.03533491 -0.06327024 -0.07391973 0.095902525
-0.016450562 0.010337282 0.025845146 0.0053095953 0.11004528 0.07444608 -0.013077167 0.027276175
0.003537594 0.03723322 0.15214913 -0.07049559 0.07956572 -0.2786064 -0.0049253837 -0.015022041
-0.20890656 -0.08701088 0.07565553 0.091503516 0.13627641 0.10823218 0.12209039 -0.023908263
0.0085906265 -0.013074259 0.007481228 -0.17625476 -0.08080817 -0.03475155 0.01103544 -0.049721554
0.032650046 0.02405189 -0.04460561 0.011635004 -0.15779085 0.06571102 -0.0030896475 0.11475236
0.06419544 -0.07832571 -0.08335527 0.089451514 -0.06346902 -0.027696857 0.201006 -0.004810853
0.011079819 0.13245879 -0.08801973 -0.04518491 -0.19745305 -0.16042112 0.02337157 0.19751157
-0.03417855 -0.16675876 0.13427132 0.00570588 0.044706013 -0.047358606 -0.046676565 0.08992044
0.076382525 0.1244091 -0.05728605 -0.0146937175 0.049168617 -0.16148913 0.020742742 -0.13132285
0.08345578 0.1899271 0.103252515 0.01711281 0.0019414709 0.014367129 0.047477085 0.19878648
0.070652075 0.19712155 0.0018632984 0.037330754 0.082620524 0.14002143 -0.057846803 -0.035387583
-0.29141304 -0.14401814 -0.13369223 0.017985418 0.010983869 0.10907293 0.059279073 0.038943026
0.04441052 -0.04925216 -0.095108576 -0.12592605 0.043025825 0.007103892 0.10529618 -0.048478145
-0.094232626 -0.08586574 0.03976449 -0.0332771 -0.013043559 0.087903254 -0.03189846 0.14511377
-0.075756915 -0.038892444 -0.02615225 -0.04764946 -0.046481404 0.03557732 -0.018287374 0.0031726372
-0.11807877 0.032048933 0.17747505 -0.09187957 0.3171234 -0.047881395 0.13891008 -0.29921
-0.018219085 -0.037067346 -0.20356448 -0.110027924 0.14218824 0.07377131 -0.076862134 0.017847128
0.07273167 0.108582765 -0.022633325 -0.07306077 -0.0017619842 -0.15175384 -0.019805333 -0.01097617
0.031965688 0.039400794 0.09036518 0.010661748 0.049793333 0.034015395 -0.037351042 -0.13973458
0.046687085 0.015896844 -0.021159638 -0.026278174 0.0014922979 0.013959646 -0.03944157 -0.1262888
-0.0053562084 0.07989251 -0.048877865 -0.011261837 -0.026141379 0.04800121 0.10221401 0.038779132
-0.17521271 0.06240762 0.08863594 0.008998773 0.09269576 0.020857988 -0.15293443 0.059002582
0.08963992 0.05917614 0.074889556 0.11029138 -0.08268383 0.035240877 -0.14517188 -0.04793683
0.12005857 -0.11001152 -0.034182757 -0.09913534 0.066050604 -0.062020876 -0.016760511 -0.0879618
-0.039057557 -0.033711117 -0.13177128 -0.0031369005 -0.043165874 -0.042497586 0.0038071093 -0.121795416
0.012657957 0.10376791 -0.122016214 0.05494624 0.09007461 -0.1036985 -0.028173728 -0.13448979
-0.030400595 -0.111097045 -0.09666087 0.017440045 0.15401182 -0.0970194 0.01909258 -0.09435121

model/fc_out/MatMul/ReadVariableOp:0 f4 [256, 4]
00000000: 5425 1eb8 8e00 0fbb d625 99b8 a8dc be3b
00000010: 9295 163b 0fd7 84bd 1c5a 183d ee86 393e
00000020: 5fa4 cebb 1241 a03d 2bb6 94bc e1af 2e3d
00000030: 9bcc 34bd 8429 5d3d f109 3c3d abba a73d
00000040: 3cae 5d3d abef 0cbd 2f44 523d 1bf4 b7bd
00000050: ccbd 0b38 c5e4 aebb 9a4f 34ba f0ff 5ebc
00000060: 1d3a 7f3d f14a 85bc 664f 79bd da4d 3fbd
00000070: 5207 c3b8 a812 b63a d97e f8b8 af6c 0c3b
00000080: edfc 1238 c0e3 153b 07b9 8d39 740a 913b
00000090: af17 8738 f5a7 1eba 7b81 05b7 81a4 1e3b
000000a0: e66a 72bd f027 35bc 4a5a 1bbd e652 b53d
000000b0: 8432 75bb 2d92 a0bd 2626 45bc 6100 1bbe
000000c0: 02be 003c 3ddd 093e eae9 e83b 886e c23d
000000d0: b5b7 04bd 5cea c73d 6ba8 adbd 7470 37bd
000000e0: 2f83 01ba 89a6 583d cb05 b13c 1751 17bb
000000f0: b5a3 8eb8 cbfe 133c e50d 603a 5daa 7e39
00000100: 7c9f 073a d106 51bc 98cf 413a 1e04 753c
00000110: ca0a dbb8 4281 76ba ccda ceb8 1935 0fbb
00000120: 90c1 8b3d 1a09 e4bd fca9 c2bb e09a bebc
00000130: d855 133d 1a4f f4bd fd9d c13d 497b 2d3d
00000140: 5bfc 973a 560b 25bd 216e 62bc 7b1e 4dbe
00000150: 6132 0b39 ada0 e43b 73bb 2a3a af5e b93b
00000160: d235 41bb c678 a5bd 6a8e 83bb fdd2 09bd
00000170: bc51 8239 b014 afbc e190 663c 8e10 efbd
00000180: afbe 29bd d15f 7b3d 3699 60bd 001e e13c
00000190: f05a e9bc e43b 203c d3aa 963c 37fc ba3c
000001a0: 83ab 50b9 b095 80bb be1c 4eba 8202 02bc
000001b0: 7f20 2739 a273 78bb 9889 4d38 81fa cc3b
000001c0: 4e6e 3f38 2b38 cfba cc6e 4db9 47bf 883b
000001d0: f368 8bb7 6646 4dbb dcb8 e239 bd56 983b
000001e0: 3494 9e3b b686 cb3d 1788 da3d 7284 95bd
000001f0: 9b23 c7bc 61b5 693c 7091 ad3c 87fc adbd
00000200: 4c9c 7837 6fb2 a03b 3858 0c3a ba4e 133b
00000210: d55c 2dbc 420a f93d 02c1 fe3b 59fc f63d
00000220: 7336 9b3b 38f3 b8bd a979 04bd 2408 17be
00000230: 59be 253d 0369 6bbc 834b 693d acdb 323d
00000240: 12d5 80bb a440 acbe 655c 42bb c8a4 fe3d
00000250: 9d1b 01bd d3aa 803c 3744 9d3d 8b48 80bd
00000260: 186e 303c 94ab 9c3c 715f 40bd 68da bc3c
00000270: 616d c53b c5c4 8f3d 398c 3ebd 1988 3abe
00000280: 2eb2 31b9 752a a33b edc6 5db9 6422 f0bb
00000290: 8fef c7b8 0137 65ba 17b4 3639 4a82 083c
000002a0: 49df 92b8 c111 623c b207 d039 f0dd 1339
000002b0: 525e 6cbc 16fb 2c3e f0e0 6a3d c22a 6a3d
000002c0: 3166 b5bb 8283 db3c efd8 d6bc cacf 653c
000002d0: c47f 49bd 8604 a73d e424 0a3c 45e0 99bb
000002e0: 3e93 6738 53b8 41bc 75b3 bf39 5009 fe3b
000002f0: 7d0c ee38 695f 8e3b 24d4 89b7 8b6f b0ba
00000300: 01e2 eebb 48d3 fcbd e35d 7dbc 632f d1bd
00000310: c915 e1bb 5a22 123e d54d 7d3d 5dde ee3d
00000320: a62f 73bd 184b e93d bb9e 26bb 9c82 a8bd
00000330: b9fa 44bc 80b7 27bd 8d6b 94bc c92d c7bd
00000340: aed9 38bc fbd3 a8bb 1b2f 843d b758 8cbd
00000350: 8c4f 0eb9 c86d 17bb b10c 59b9 e8be efba
00000360: 0bad 96b8 e200 52bb aba8 7ab7 524b 5bbc
00000370: a358 743d 52c4 543d f041 f8bc 1270 a23d
00000380: 877b 2e3d 3a21 ccbb f57f 673d b055 a23d
00000390: e97d 49b8 5acf 84b9 9ce7 c238 0a5f d3bb
000003a0: 84c9 2c3d 5d83 6f3c c908 883c 791a 813c
000003b0: 64a0 0cb9 7a58 8dbb e13c 45ba 3266 8fbc
000003c0: a178 2338 7fdf a2ba 4e5f 4fb8 cb38 8a3a
000003d0: 34b3 a6bc 579a 31bd df2e d93d 5c2d 62bc
000003e0: 2400 b738 5ee2 1f3b c4f8 e3b8 08c1 be3b
000003f0: 3ac2 5db8 3265 46bb fd38 42b9 cc69 0a3b
-3.77049e-05 -0.00218204 -7.302656e-05 0.005824644 0.0022977334 -0.06486332 0.03719531 0.18117878
-0.0063062157 0.07824911 -0.01815327 0.0426482 -0.04414044 0.05399467 0.04590792 0.08189901
0.05412124 -0.034408253 0.051334556 -0.08982106 3.3316945e-05 -0.00533733 -0.00068783166 -0.013610825
0.06231128 -0.016271086 -0.060866736 -0.046705104 -9.299688e-05 0.0013891058 -0.00011849189 0.0021427085
3.5044668e-05 0.0022871345 0.00027031472 0.004426295 6.441713e-05 -0.0006052249 -7.957565e-06 0.0024206939
-0.059183978 -0.011056885 -0.037927903 0.08853702 -0.0037414143 -0.07840381 -0.012033021 -0.15136863
0.007857801 0.13463302 0.007107963 0.094937384 -0.03240176 0.097614974 -0.08479389 -0.044784978
-0.00049405074 0.052893195 0.021609208 -0.0023089105 -6.8015805e-05 0.009032915 0.00085469923 0.00024286793
0.00051736063 -0.012757973 0.00073932996 0.014954595 -0.000104447434 -0.0009403416 -9.8635996e-05 -0.0021851717
0.068240285 -0.111345485 -0.005940674 -0.02326721 0.03597054 -0.1192915 0.09453962 0.042353902
0.0011595594 -0.040294014 -0.013820202 -0.20031159 0.0001327484 0.006977162 0.00065129175 0.005657039
-0.0029481542 -0.08079676 -0.00401478 -0.03364848 0.0002485643 -0.02137217 0.014072628 -0.116730794
-0.041441616 0.061370675 -0.054833613 0.027480125 -0.028485745 0.009779904 0.018392002 0.022825344
-0.00019900319 -0.003924094 -0.0007862559 -0.007935168 0.00015938467 -0.003791072 4.9003953e-05 0.0062554483
4.5640678e-05 -0.0015809586 -0.00019591599 0.0041731927 -1.6618962e-05 -0.0031322478 0.0004324381 0.004649012
0.0048394445 0.099378034 0.10670488 -0.073006526 -0.02430897 0.0142644355 0.021187514 -0.084954314
1.4818343e-05 0.0049040834 0.0005353722 0.0022477345 -0.010581215 0.1216016 0.007774473 0.1205985
0.0047367155 -0.09030765 -0.032342587 -0.14749199 0.040464733 -0.014368298 0.05695678 0.043666527
-0.00393165 -0.33643067 -0.0029657122 0.12433773 -0.031520475 0.015706455 0.076790266 -0.062638365
0.010768436 0.019124784 -0.04696602 0.023053363 0.006025002 0.07019953 -0.046520445 -0.1821598
-0.00016946413 0.0049794265 -0.00021150308 -0.0073283184 -9.533681e-05 -0.0008743853 0.00017423961 0.008331845
-7.0034126e-05 0.013798178 0.00039678585 0.0001410169 -0.014426785 0.16892657 0.057343423 0.057169683
-0.005535864 0.026796106 -0.026226489 0.014026592 -0.049194112 0.0815516 0.008431647 -0.0046959245
5.521182e-05 -0.0118237315 0.00036564065 0.007752575 0.000113510505 0.00434487 -1.6430458e-05 -0.0013460977
-0.0072901254 -0.12344986 -0.015464279 -0.102141164 -0.006869052 0.14270917 0.061841805 0.11663506
-0.059371613 0.11391276 -0.00254242 -0.08228037 -0.012022668 -0.040946484 -0.01811769 -0.0972553
-0.011282368 -0.005152223 0.06454297 -0.068528585 -0.00013571809 -0.0023106206 -0.0002069946 -0.0018291147
-7.184789e-05 -0.0032043983 -1.4940432e-05 -0.013384657 0.059654843 0.05194504 -0.030304879 0.07931532
0.042598274 -0.006229547 0.056518514 0.079265 -4.8039397e-05 -0.0002533149 9.2937815e-05 -0.0064505385
0.042184368 0.014618722 0.016605752 0.015759693 -0.0001341119 -0.0043135257 -0.0007524025 -0.017504785
3.8974573e-05 -0.0012426226 -4.9441405e-05 0.001054549 -0.020349123 -0.04336008 0.10604643 -0.01380476
8.726146e-05 0.00243964 -0.0001087054 0.005821351 -5.2871394e-05 -0.003027272 -0.00018522512 0.0021120189

model/fc_out/BiasAdd/ReadVariableOp:0 f4 [4]
00000000: 1f92 52bc ac01 dcbd de31 b43b df46 80bd
-0.012852221 -0.107425064 0.0054991087 -0.062635176

model/fc_2/MatMul/ReadVariableOp:0 f4 [256, 256]
00000000: 4aea cdbd 09e7 6e3d a9ab ccbd 9a16 633e
00000010: ba4e 50bd 5401 c93d 87df 513e 810d 71bd
00000020: a281 9c3b eb15 aebc 6fd3 853e ed75 1cbe
00000030: ad34 443d 65a4 49bd d6b5 20bd dec8 223e
00000040: 0f7e 0dbd 4483 d33d 9b91 a1bd 5b71 253d
00000050: b874 60be c171 1fbd 4760 b2bd bc47 f3bc
00000060: 0170 723e 4001 71bd caa5 943c 65ce 90bd
00000070: 6854 a73d 5e97 0dbd cfd6 023d c584 a7bd
00000080: 14ce 393d 8394 143e e39c 1fbe 3253 08be
00000090: c515 c2bd 8cb7 dabc d241 0f3e 7223 48bd
000000a0: e66c 523d e53a dabc 1881 193d 6cff 80bd
000000b0: e33c cebe c67a 0a3e 2af1 463e db42 143e
000000c0: 009e fcbd 26a1 2d3e 82a6 873d adc0 63be
000000d0: 3c5e a23e d8fe 8cbd be3e 54bd 7c06 02bd
000000e0: fe29 823e d442 40bd ec96 9bbc 95bd c9ba
000000f0: d76f d2bd e6d3 89bd fb82 1fbd 15bf 61bd
00000100: e847 43be f296 0fbd 8380 b93d c5d5 c3bc
00000110: c590 40be 4062 1e3d 6046 0c3c b301 debd
00000120: 74a1 49bd 92a3 afbd 3ea3 053d 374e 0abe
00000130: 04ea cabd b465 2bbd 1c8b e23d 075a 19bd
00000140: bc23 9e3d 66c9 f83b c57d 0ebe a4fa 0bbc
00000150: 952e c23d fabf 4e3c 0baa 323d 3950 d83d
00000160: 43bc 473d 4f06 623d 33bb a1bd 8a2c 523d
00000170: ee4c d4bb bd96 10bd 29bb 303d a44c 2fbd
00000180: 128a 0cbe dcc4 b93c 162a 17bd fd2b d93d
00000190: a8a3 983c 4ed8 93bd 4191 a4bd 16d8 563d
000001a0: b6f5 65bd 9e40 213d d03f d4bc 9500 f6bc
000001b0: 4a68 a1bc 5eb4 923d f6d5 a43d 2c25 ecbc
000001c0: 30fc 5f3e 6924 e9bc 4fc6 b1bd a9a6 933d
000001d0: c238 a639 3ad0 2a3e 9d61 73bd a5c1 dd3b
000001e0: a158 dc3d 7cb2 933d 94b5 5abd de94 613e
000001f0: 0bd1 14bd 9904 0d3d c589 da3c b3d4 9ebd
00000200: c733 17be fd24 343d b785 84be 772f 30be
00000210: 5599 78bc 5454 343d 466e 8abb 84ce 883e
00000220: 29c8 033d 189b 61bd 198a aebd 2aaf bfbd
00000230: 531a f93d e37b 21be c731 62be 344b 553d
00000240: 6286 dfbc df57 e0bd ff22 4fbd 2f9c 113d
00000250: 3cf0 953d 790d 38bc 1071 a33b e738 fbbd
00000260: 8ca6 b7bd 1606 cf3d f90f 9e3d 67a9 68bd
00000270: c537 b0bc bd7e b53d 4b7b 193e ce15 50bd
00000280: 7939 04bd 1a2b 223e 6dbf e93d c1fb fc3c
00000290: 429c 3a3d dc9f e3bd 8dd3 8ebd 4fc0 2dbd
000002a0: 13fb 203e 8ff0 ccbd cf04 c73c 001d 8cbd
000002b0: 35db 85bc e2ed 723d e729 b23d 7365 67bc
000002c0: 1c7f 16be 3e17 063e 4e03 ac3e 832a be3b
000002d0: 623d 46be 7d5e 213c 8c47 d33c 01f5 1f3d
000002e0: 31fc c0bd a606 763e 8fc8 143e 9e68 f53c
000002f0: 0eab 93be 1209 a03d 2e23 b43d d784 8bbd
00000300: 87bf 3fbe 7706 8ebb a788 b53c 4886 e9bd
00000310: c6b5 2dbc 18df 7dbd 4cca 173e 0c0c 823d
00000320: 0d9b d7bb c035 28bd 06b3 4ebd 9812 193e
00000330: cbcb adbd c7fe b43d 87a3 123e 0140 9f3e
00000340: b7a8 9a3e add5 bb3c 8fb2 90be e981 3f3e
00000350: a826 fdbc 79fe ff3d 72e4 89bd b7a4 bfbb
00000360: 5224 eebd ce02 bcbd 33fb debe 1291 2fbd
00000370: 810f 5f3c e5a7 773c feb9 f93b 800a 04bd
00000380: 9822 68be b83c 193e f39e d13d 1123 1a3e
00000390: 55cb cebd 9a6c 873e 39d7 d3bd e470 f83d
000003a0: f4af bd3e 0844 71bd 13a5 8dbc f18b 39be
000003b0: 879b 1d3c 268b 133e 46fd 43bd d885 9d3c
000003c0: e75b c8bd c1de 323d 48b1 47be d9eb 08be
000003d0: 7539 cdbd 70d3 28be 6f02 cf3c 2501 413d
000003e0: 71bf d8bc 4056 b5bd 8b61 bd3d c6e2 66bb
000003f0: 9665 b5bd 6fed 923d 005b 803d 8491 89bd
-0.10054453 0.0583258 -0.09993679 0.2217659 -0.05085633 0.098147064 0.20495425 -0.05885077
0.0047761956 -0.021250686 0.26137874 -0.1527936 0.047901798 -0.049229044 -0.039235912 0.15896937
-0.034544047 0.10327771 -0.078891 0.040391307 -0.21919525 -0.038926844 -0.0870977 -0.029697292
0.23675539 -0.058839083 0.01814546 -0.07070617 0.08170396 -0.034568183 0.03194314 -0.08179621
0.045362547 0.14509778 -0.15587191 -0.13312986 -0.094768085 -0.02669885 0.13989952 -0.04886193
0.051373385 -0.026639411 0.03747663 -0.06298718 -0.40280828 0.13523397 0.19427934 0.14478628
-0.123348236 0.16956005 0.06623556 -0.22241469 0.3171252 -0.06884545 -0.051817648 -0.031744465
0.25422662 -0.046938732 -0.018992864 -0.0015391583 -0.10275238 -0.067298695 -0.038943272 -0.05511387
-0.19070399 -0.035056062 0.09057715 -0.023905644 -0.18805225 0.038667917 0.008561701 -0.10840168
-0.04922624 -0.085761204 0.032626383 -0.13506399 -0.09907916 -0.04184504 0.11061689 -0.037439372
0.077216595 0.007592368 -0.13915165 -0.008543644 0.09481541 0.012619013 0.043619197 0.10562176
0.048763525 0.055181798 -0.078970335 0.051312007 -0.0064788973 -0.035300005 0.04314724 -0.0427977
-0.13724545 0.022676878 -0.03690537 0.10604093 0.018632725 -0.07218991 -0.080355175 0.05245217
-0.05614253 0.039368264 -0.025909334 -0.030029574 -0.01970305 0.071633086 0.08048622 -0.028826319
0.21873546 -0.028459745 -0.086804025 0.07209522 0.00031704275 0.16680995 -0.059419263 0.006767469
0.10759092 0.072117776 -0.053395823 0.22029445 -0.03633217 0.034428213 0.026677022 -0.07755413
-0.14765845 0.043980587 -0.25883266 -0.17205606 -0.015173276 0.044025734 -0.0042245714 0.2672006
0.03217331 -0.05507955 -0.08522434 -0.09359582 0.12163224 -0.15769915 -0.22089301 0.052073672
-0.027285758 -0.1095426 -0.050570484 0.03554934 0.07321212 -0.011233681 0.0049878433 -0.12266713
-0.08967313 0.10108583 0.0771789 -0.05680218 -0.021510968 0.08862064 0.14988439 -0.050802045
-0.032281373 0.15836754 0.11413465 0.030881764 0.045559175 -0.11114475 -0.06973944 -0.042419728
0.15720777 -0.100068204 0.024294285 -0.06841469 -0.016339878 0.059308894 0.086993985 -0.0141233085
-0.14696926 0.13094804 0.3359627 0.0058034076 -0.19359353 0.009849188 0.025790952 0.039052013
-0.09423102 0.24025974 0.14529632 0.029957112 -0.28841442 0.0781423 0.087957725 -0.068124466
-0.18725406 -0.0043342668 0.022159887 -0.11402565 -0.01060242 -0.061980337 0.14823264 0.06349954
-0.006579763 -0.041066885 -0.0504637 0.14948499 -0.08486136 0.088376574 0.14320193 0.3110352
0.30206844 0.022929037 -0.2826123 0.187019 -0.030902222 0.12499709 -0.067330256 -0.005848493
-0.11628021 -0.091802225 -0.43551025 -0.04286296 0.013614536 0.015115713 0.007621049 -0.032236576
-0.22669446 0.14964569 0.10235395 0.1505244 -0.10097376 0.26450044 -0.10343785 0.12130907
0.37048304 -0.05890277 -0.017290628 -0.1811979 0.0096196 0.1440855 -0.047848962 0.01922886
-0.09783154 0.043669466 -0.19501221 -0.13371219 -0.10020725 -0.16486907 0.025269715 0.047120232
-0.026458474 -0.088543415 0.092471205 -0.0035230382 -0.088572666 0.07174193 0.06267357 -0.06717208
